
name: "RelationModel"



input: "location_s"
input_shape {
  dim: 1
  dim:4
}
input: "location_o"
input_shape {
  dim: 1
  dim: 4
}
layer
{
  name: "location_diff"
  type: "Eltwise"
  bottom: "location_s"
  bottom: "location_o"
  top: "location_diff"
  eltwise_param {
    operation: SUM
    coeff: 1
    coeff: -1
  }
}

layer {
  name: "location_fc1"
  type: "InnerProduct"
  bottom: "location_diff"
  top: "location_fc1"
  param {
    lr_mult: 1
  }
  param {
    lr_mult: 2
  }
  inner_product_param {
    num_output:20
    weight_filler {
      type: "xavier"
    }
    bias_filler {
      type: "constant"
    }
  }
}

layer {
  name: "relu1"
  type: "ReLU"
  bottom: "location_fc1"
  top: "location_fc1"
}

layer {
  name: "location_fc2"
  type: "InnerProduct"
  bottom: "location_fc1"
  top: "location_fc2"
  param {
    lr_mult: 1
  }
  param {
    lr_mult: 2
  }
  inner_product_param {
    num_output:10
    weight_filler {
      type: "xavier"
    }
    bias_filler {
      type: "constant"
    }
  }
}

layer {
  name: "relu2"
  type: "ReLU"
  bottom: "location_fc2"
  top: "location_fc2"
}


layer {
  name: "relation"
  type: "InnerProduct"
  bottom: "location_fc2"
  top: "relation"
  param {
    lr_mult: 1
  }
  param {
    lr_mult: 2
  }
  inner_product_param {
    num_output: 70
    weight_filler {
      type: "xavier"
    }
    bias_filler {
      type: "constant"
    }
  }
}

layer {
  name: "relation_prob"
  type: "Softmax"
  bottom: "relation"
  top: "relation_prob"
}
